Model: "cnn_c2_f32-64_k3-3_max_non_shared"
+--------------------------------------------------------------------------+
| Layer (type)                    | Output Shape           |       Param # |
|---------------------------------+------------------------+---------------|
| image (InputLayer)              | (None, 32, 32, 3)      |             0 |
|---------------------------------+------------------------+---------------|
| locally_connected2d_1           | (None, 32, 32, 32)     |       917,504 |
| (LocallyConnected2D)            |                        |               |
|---------------------------------+------------------------+---------------|
| max_pool_1 (MaxPooling2D)       | (None, 16, 16, 32)     |             0 |
|---------------------------------+------------------------+---------------|
| locally_connected2d_2           | (None, 16, 16, 64)     |     4,734,976 |
| (LocallyConnected2D)            |                        |               |
|---------------------------------+------------------------+---------------|
| max_pool_2 (MaxPooling2D)       | (None, 8, 8, 64)       |             0 |
|---------------------------------+------------------------+---------------|
| flatten (Flatten)               | (None, 4096)           |             0 |
|---------------------------------+------------------------+---------------|
| dense_classifier (Dense)        | (None, 128)            |       524,416 |
|---------------------------------+------------------------+---------------|
| dropout (Dropout)               | (None, 128)            |             0 |
|---------------------------------+------------------------+---------------|
| class_probabilities (Dense)     | (None, 6)              |           774 |
+--------------------------------------------------------------------------+
 Total params: 6,177,670 (23.57 MB)
 Trainable params: 6,177,670 (23.57 MB)
 Non-trainable params: 0 (0.00 B)
